model/neural_net_classifier.pth (torch, 3571 bytes, 4 tensors)

fc1.weight f4 [64, 4]
00000000: 8d30 10bd 85d8 253d 77ed 89be 7f4f d6be
00000010: 8e2a bbbe 30b2 5fbe 0ef7 b4be 2477 b13e
00000020: b38a babe c4fb d53e 93fa dbbe afdc c13e
00000030: 58b7 85bd 9ca2 a6be 30d5 4fbe 6820 a03d
00000040: 3d0e bc3d 0552 dbbe 520e 43bb d911 ff3e
00000050: 14c7 d5be e027 8c3c e076 a8bc 70d5 c83d
00000060: 17b1 443d 8e6b cbbe d25a 693b 4e6e 93bd
00000070: 7344 33be 6cfb 9d3e bd7a bdbe 0967 213f
00000080: aa54 c1be a85b 4abe 7e1d 93be 800e ed3d
00000090: be28 dabc 73e0 6ebe b323 7c3e 9c9f a9be
000000a0: 4735 713c d6e5 32bc 6310 71be e11f 43be
000000b0: 4192 92be 2c77 7f3e 310a d93e 1424 2bbe
000000c0: 001e efba 7424 dbbe a81b cebe c085 fdbc
000000d0: ae5e cdbe 30df fd3d 8083 3e3c cac4 f13e
000000e0: 0148 abbd 8fd1 0dbe 7913 dd3e 69b8 bcbe
000000f0: bb3c 88be d4d9 81be 817d 983e 4993 9a3e
00000100: 4458 c53d 5b33 c7be e7eb f9be 0393 9b3e
00000110: 9f2f d7bb 58b6 88be ee9f febd 81b6 2f3e
00000120: e41e 01bd cdf8 1a3d 72e3 8abe e554 033d
00000130: 80db c4bb 3465 48be 4882 febe 00ac b7bd
00000140: dcfe 08bc de5e b8bc 1acd 3bbd bdba 7d3e
00000150: 572b 75be 30b7 b93e 785e f2be 9f69 febb
00000160: b14e fdbe 1c5a 673e 853f c53e 2f5e b43e
00000170: d6a1 bebe f827 fd3d 907a b1be 5c97 2f3e
00000180: 4ed1 6bbe b010 2d3e 1763 513d e42b de3e
00000190: b840 43be 6ec6 94bd d862 d73d d4d3 9a3e
000001a0: c5a7 303d 66e5 8dbe eef6 87bc b090 7b3e
000001b0: aa72 3fbe 3789 493e ad34 19be 4168 e3be
000001c0: 87c6 0ebe ef31 043f b039 0a3e c3c5 b1be
000001d0: e4f0 5cbd f68a 37bd abf3 9c3e bbb3 cebe
000001e0: 5ed6 28bd 8d61 143e cdfd c53c 9038 c63e
000001f0: ea61 31be 76c8 263e 5e18 5e3e 4cd5 74be
00000200: 7533 bc3d 0d90 e0be e779 dd3e 5822 743e
00000210: 1c68 fcbe d0d3 943e 88f4 f2bd c0b7 273d
00000220: 6ead f5be bc26 1b3e c05e 853d b03e a03d
00000230: 3c65 ce3a 0995 87be d6f0 4ebe 7bd6 7bbe
00000240: 54e8 9ebd 327d c73d 3495 8ebe e4ce c23e
00000250: 9ed2 5a3d 4c5d 42be ba0f c6be a5cf a6bd
00000260: c81f 0abe 70cd 733e 99e9 5e3e e73f 19bf
00000270: a8f6 82bd f0ec d7be 440b 03be 5875 88bd
00000280: f01d 01be c784 2abf 71bb 563f a880 9f3e
00000290: 11b5 77be 8279 8d3e 6ffb 063e a63d bebe
000002a0: 6747 fdbd 2ca0 29bc 9b32 a83d 0a22 b03e
000002b0: 727a 08be 58c9 2f3e 1912 34be 4b41 943e
000002c0: 616c abbb e782 8abe cc61 ca3d 73b8 15be
000002d0: 4d86 62be 88a0 bf3e 6e9a 703e 2d05 01bf
000002e0: 70f9 8d3d 6055 fbbe 38aa ebbd 2005 a8be
000002f0: 3521 a0be 3528 2b3e ca91 3a3e a84f fd3e
00000300: 68fc c83d 914f 62be cb2b b2be cdfa c2be
00000310: c755 40be 84c3 643e 2994 05bf aefa aebe
00000320: 8012 b13c 2e9c b4be 9834 d6be 80b1 ad3b
00000330: 3a12 5fbe 4c46 a73e 422d 9d3e ca2c e53e
00000340: 8c44 ecbe c24c e53e c795 b43e ce3f adbd
00000350: ad8b 033e 76c2 c4bd cb32 9bbe 5f97 f43e
00000360: d06b 633e f4b7 e1be c2b2 b0be 7ba9 a23e
00000370: 2485 60be 0635 e9be e050 81bd eef1 fbbe
00000380: e836 82be 3b94 423d bb4f ad3e 161a 433e
00000390: 86a5 42be ff72 b23e c0f2 acbe def6 9fbe
000003a0: 713e 2fbe 275a bbbe f830 4b3d 1c7e 8e3e
000003b0: 94e8 5abe dd34 943e fa20 ccbe 8dec f3bd
000003c0: a6b0 c6bd 4f53 ed3d f648 d6be 0207 62be
000003d0: a35e 1b3d f6cf 21be c5b1 efbd 0a8c 6abe
000003e0: 6039 a3be a41a b9be 84af 5abe d608 90be
000003f0: 2039 0bbe 791a 983e fed1 fe3e afc6 8ebd
-0.03520255 0.040489692 -0.26938984 -0.41857526 -0.36555904 -0.21845317 -0.35344738 0.3466121
-0.36433944 0.41793644 -0.4296461 0.3786368 -0.06529111 -0.32545936 -0.20296168 0.07818681
0.09182403 -0.42836013 -0.0029763174 0.49818304 -0.41753447 0.017108858 -0.020564497 0.09806335
0.04802045 -0.39730495 0.0035607112 -0.07198773 -0.1750658 0.30855882 -0.37007704 0.63047844
-0.37759906 -0.19761527 -0.28733438 0.11575031 -0.026630756 -0.23327808 0.24622993 -0.33129585
0.014722175 -0.010919055 -0.23541407 -0.1905513 -0.28627208 0.24947804 0.42390588 -0.16712981
-0.0018243194 -0.4280125 -0.40255475 -0.030947566 -0.40111297 0.12396085 0.011628032 0.4722045
-0.08363343 -0.13849472 0.4317892 -0.36859444 -0.26608834 -0.25361502 0.29783252 0.30190495
0.09635976 -0.3890637 -0.48812792 0.303856 -0.006566956 -0.26701617 -0.12432848 0.17159463
-0.0315236 0.03783493 -0.27126652 0.032063384 -0.0060076118 -0.19569856 -0.49708772 -0.08968353
-0.008361544 -0.022506174 -0.045849897 0.24778266 -0.23942314 0.36272573 -0.473377 -0.007764056
-0.494741 0.22592968 0.38525024 0.35228106 -0.37232846 0.12361139 -0.3466382 0.17147583
-0.23029062 0.16900897 0.05111989 0.4339286 -0.19067657 -0.0726441 0.105169 0.30239737
0.043128747 -0.2771408 -0.016597237 0.24566913 -0.18696085 0.1968125 -0.149615 -0.44415477
-0.1394292 0.5163869 0.13498569 -0.34721193 -0.05394067 -0.044810258 0.30654654 -0.40371498
-0.04122006 0.14490338 0.024168873 0.3871503 -0.17322508 0.16287407 0.21688983 -0.23909491
0.09189502 -0.43859902 0.43257067 0.23841226 -0.4929818 0.2906785 -0.11863047 0.040946722
-0.4798388 0.15151495 0.06512213 0.07824457 0.0015746723 -0.26480892 -0.20209059 -0.24593537
-0.07759157 0.09740676 -0.27848208 0.3804847 0.053423516 -0.18980902 -0.38683873 -0.08145074
-0.13488686 0.23808837 0.21768798 -0.5986313 -0.06394702 -0.42172956 -0.12797266 -0.066630065
-0.12609076 -0.6660885 0.8387976 0.31152844 -0.24190165 0.27631766 0.13181852 -0.3715641
-0.123671345 -0.010353129 0.08212777 0.3440097 -0.13327959 0.1716665 -0.17585029 0.28956065
-0.0052314256 -0.27052996 0.098819345 -0.14621143 -0.22121544 0.37427163 0.2349641 -0.5039852
0.06932342 -0.49088573 -0.11507076 -0.3281641 -0.31275335 0.16714557 0.18219677 0.49474835
0.09813768 -0.22100665 -0.34799036 -0.3808197 -0.18782721 0.22340208 -0.521792 -0.34175628
0.021615267 -0.35275406 -0.41837 0.0053007007 -0.21784297 0.3267082 0.3069859 0.44760734
-0.46146047 0.44785124 0.3527052 -0.084594354 0.12846251 -0.09607403 -0.3031219 0.47771737
0.22209096 -0.44085658 -0.3451138 0.31769928 -0.21925789 -0.45548266 -0.06314254 -0.49208015
-0.25432515 0.047504645 0.33849892 0.1905292 -0.19008455 0.3485336 -0.33778954 -0.31243032
-0.17113663 -0.36592218 0.049607247 0.2783059 -0.21377784 0.2894658 -0.3986891 -0.11910353
-0.09701662 0.115881555 -0.4185254 -0.22072986 0.03793205 -0.15801987 -0.11703829 -0.22904983
-0.3187971 -0.36153138 -0.21356016 -0.2813174 -0.1359601 0.29707697 0.49769586 -0.0697149

fc1.bias f4 [64]
00000000: 19ca 9c3e 201a 9a3d 3314 643e 4e4f c53e
00000010: 67ce 9bbe 1879 bd3e 6c27 433c 549b 3ebe
00000020: f464 d9be bad8 6fbc b588 1f3d 07f1 92be
00000030: 64c5 a93e 08b5 dbbe 4cc2 563e f8a6 46bd
00000040: 0c8d 323e 40ed 193e 98e0 213d 3e18 f33e
00000050: eac7 95bf 1323 95be 74af 0e3c 0c0c 193e
00000060: 8af3 5fbd dc94 ee3e d24d dfbe 6456 a5bd
00000070: 2e67 adbe dab8 6abe 08f8 5fbd 50e2 a8be
00000080: 8c06 d6be 8096 e93c 3824 393e e62a 9cbe
00000090: e1bf 063d 5787 8cbd 607b bcbe 8447 4cbe
000000a0: 4f64 d83d 7d2d ba3c e5e4 df3e c11e 2f3e
000000b0: 0f85 c43e 16a5 993e 88a7 4dbe 7a46 f8be
000000c0: a93f b5be bcc7 2cbd 087c 9dbe 89e3 c03e
000000d0: 6c76 85be f409 abbf ebc6 97be 7602 8b3e
000000e0: a85e 943e 4e9e b73e f260 6d3e f610 d63e
000000f0: cc88 d7be c4a3 3a3e e09a a23c 297c dcbe
0.30622938 0.07524514 0.2227333 0.38537067 -0.3043091 0.3700645 0.011911254 -0.1861394
-0.42459834 -0.014639074 0.038948733 -0.28699514 0.3315841 -0.42911553 0.20972556 -0.048499078
0.17436618 0.1503191 0.03952083 0.47479433 -1.1701634 -0.29128322 0.0087088235 0.14946002
-0.054675616 0.46597946 -0.4361406 -0.08073118 -0.33867782 -0.22922078 -0.0546799 -0.32985163
-0.4180187 0.028514147 0.18080223 -0.3050148 0.032897834 -0.068617515 -0.36812878 -0.19949156
0.10566007 0.022726769 0.4372932 0.17101575 0.38382766 0.30008763 -0.2008344 -0.4849127
-0.3540013 -0.04218267 -0.3075869 0.37673596 -0.2606691 -1.3362412 -0.2964395 0.27150315
0.28978467 0.35862964 0.23181513 0.41809815 -0.42096555 0.18226534 0.01984924 -0.43063477

fc2.weight f4 [2, 64]
00000000: e3b9 1f3e 14ab bf3d 8369 893b f876 c9bc
00000010: d0d4 823e 8868 d9bc f428 163e 7ea2 6a3e
00000020: 32a8 eb3d b62d 3a3e 8973 143e 7b48 4e3e
00000030: b057 bbbd 6095 cc3c 001d 833d d87d 56bb
00000040: d6a7 e13d f681 4a3e 96aa b43d 20cd 373c
00000050: 32d5 c03e 93bd 41bd 1322 a2bb 3248 8f3d
00000060: e822 953e 84e2 4a3e a6af 1fbe 243e 9d3e
00000070: 822b 653e 1540 13bc a41c bc3d 3b1a 753e
00000080: 2bd5 6e3e 448a c0bd a6a0 b33d 3cd7 ecbc
00000090: afd3 323e e82b 763e 7e83 55be b011 ccbd
000000a0: 63e2 00bf f365 c2bc 4cf3 6e3e 30ad 863e
000000b0: d5f0 6b3e bb73 8dbd 48d1 8c3c 92da d43c
000000c0: 165e da3d 1765 fb3d 583c edbc 7c62 9bbd
000000d0: f1e2 9f3d d06f b23e bbb6 103d ec64 70bd
000000e0: 4956 783e 5fd5 febd 42e5 dabc 325a b2bd
000000f0: 9234 913e 03f4 cf3d 0057 11ba 22dc 463d
00000100: 270f 14be 6019 fdbb 9e3c a53d 4485 64bd
00000110: 3801 71be ea80 ef3d 3bb6 1fbd a28d 8ebe
00000120: f0ea c93c bcb8 46be 1ee8 02be 4e73 efbd
00000130: c086 ae3d 883e 883d 658a 973c 4359 d3bd
00000140: f06f 66be 98af 22be 134f 6bbe 526c da3d
00000150: efbd d0be 7193 103e e13d 8bbd 50c7 14bd
00000160: 379d bebe fe16 9fbe 5387 113e eeae 56be
00000170: b1e9 7ebd d10d 77bd b303 af3c 5eb3 31be
00000180: 4ed2 ecbd 4233 d2bd 6ceb 17bd c8a8 ea3c
00000190: 774e 27be 35d8 b6be 4341 293e ecfb e43d
000001a0: 81d6 243f 83d6 ddbc 59b8 9abe 6d7e bcbe
000001b0: f851 6cbe dc09 02bb 0075 5cba a4af 8b3d
000001c0: 6a97 8d3d 9d89 42be c0c6 733b f958 de3d
000001d0: 6f3d d83d a990 e3be 0bfd 1ebe 5c30 5abd
000001e0: 2172 b9be b7b5 273e 24ce ac3d c868 793d
000001f0: 25fe 80be ae2e 1abe 02f1 acbd e841 b8bd
0.15598254 0.093588024 0.004193486 -0.024592862 0.25552988 -0.026539102 0.1466406 0.22913548
0.1150669 0.181815 0.14497198 0.20144837 -0.091475844 0.024973571 0.06402016 -0.0032728817
0.1101834 0.19776139 0.08821599 0.011218339 0.37662655 -0.047299933 -0.0049479096 0.06996192
0.29128194 0.19812971 -0.15594348 0.30711472 0.22379878 -0.008987446 0.0918515 0.23935787
0.23323505 -0.09401372 0.08770876 -0.028911225 0.17463563 0.24040186 -0.20850942 -0.09964311
-0.5034544 -0.023730254 0.23334998 0.26304007 0.23041089 -0.069068395 0.017189637 0.025983129
0.10662477 0.12275141 -0.028959438 -0.07587144 0.078069575 0.3485093 0.035330515 -0.058689997
0.24251665 -0.12443041 -0.026720647 -0.0870861 0.2836042 0.101539634 -0.0005544275 0.04854978
-0.14458905 -0.007723972 0.080682024 -0.055791155 -0.23535621 0.1169451 -0.038992148 -0.27842432
0.02464816 -0.19406408 -0.12783858 -0.116919145 0.08521795 0.06652552 0.018498609 -0.1031976
-0.22503638 -0.15887296 -0.22979383 0.10665192 -0.40769908 0.14118744 -0.06798912 -0.03632289
-0.3722932 -0.3107223 0.14211778 -0.20965168 -0.062234584 -0.06031591 0.021364069 -0.1735358
-0.1156355 -0.10263683 -0.03708975 0.028644934 -0.16338526 -0.35711828 0.16528802 0.11180863
0.64389807 -0.027079826 -0.3021877 -0.36815205 -0.23078144 -0.0019842302 -0.00084097683 0.0682061
0.069136456 -0.18997808 0.0037197322 0.10856814 0.105585925 -0.44446304 -0.15526216 -0.053268775
-0.36219886 0.16377912 0.08437756 0.060890943 -0.25193897 -0.1505687 -0.08444406 -0.089969456

fc2.bias f4 [2]
00000000: 57e7 0fbf 6e07 183f
-0.5621237 0.59386337
